geothermal_eruption_model.tflite (tflite, 2968 bytes, 5 tensors)

arith.constant f4 [1, 8]
0.49334633 0.1658962 2.3019753 1.4579302 -0.90839815 0.78472704 0.6608521 -0.62807673
00000000: e497 fc3e b2e0 293e 9053 1340 759d ba3f
00000010: c88c 68bf dfe3 483f 9a2d 293f a3c9 20bf

arith.constant1 f4 [8, 16]
-0.115748204 -0.21578291 0.25552058 0.17496558 -0.5308331 -0.49798557 -0.1468508 -0.4569653
0.032412164 -0.1752075 -0.44424787 -0.27585477 -0.5123339 -0.3326658 -0.21899903 -0.021043736
0.1650173 0.13225935 -0.2349505 -0.11787074 0.24381037 -0.34307325 -0.41049647 -0.23359175
0.081954114 -0.3401844 0.21122651 -0.5185121 0.40258926 -0.28397354 -0.47716773 -0.2227236
-0.23318404 0.23216379 -0.29524842 -0.5173858 0.22771676 -0.07806008 -0.9876492 0.468695
-0.9201593 0.7231503 -0.06844532 -0.8893303 -0.12374977 0.64839506 1.5817705 -0.25360894
-0.43821764 -0.112580635 -0.55777866 -0.2988567 0.16483377 0.46886304 -0.62224436 0.6135299
-0.8105294 0.49682152 0.18912794 -0.95428175 -0.83337295 0.9431207 1.2160132 -0.12687898
-0.10298439 -0.33539727 0.6999006 0.7651813 0.43315566 -0.1381916 -0.15404955 0.17236032
0.28841034 0.23203993 0.054390017 0.4826186 0.13677128 0.61405236 -1.1136833 0.03248212
-0.30655003 -0.3379781 0.02770401 0.16641065 0.32528892 -0.40349567 0.40586528 -0.21811391
-0.14299968 -0.08484743 0.2839133 -0.32271174 0.039907034 0.34675154 0.53563315 0.5374012
-0.35497767 0.525943 0.19729616 -0.48094544 0.17889817 0.32365066 0.029165221 0.47116634
-0.21189587 0.6004679 -0.16754791 -0.85275793 0.06760366 -0.012721198 0.68216264 -0.14136922
0.4876751 -0.032968853 0.48383906 0.6841066 0.0015995929 0.28372523 0.09418466 -0.398698
0.4974046 0.33007893 0.5373857 0.095876224 0.591805 0.3423293 -0.6681379 0.07016023
00000000: 650d edbd 32f6 5cbe 98d3 823e 2d2a 333e
00000010: aee4 07bf f7f7 febe 0e60 16be 5bf7 e9be
00000020: 9ec2 043d 9869 33be 7574 e3be d63c 8dbe
00000030: 5128 03bf 2c53 aabe 4841 60be ea63 acbc
00000040: 4cfa 283e ff6e 073e dd96 70be 3766 f1bd
00000050: 6da9 793e 4ca7 afbe 982c d2be ad32 6fbe
00000060: 8fd7 a73d a62c aebe c34b 583e 36bd 04bf
00000070: 2e20 ce3e fb64 91be 544f f4be a811 64be
00000080: ccc7 6ebe 58bc 6d3e cd2a 97be 6573 04bf
00000090: 952e 693e f7dd 9fbd 94d6 7cbf cbf8 ef3e
000000a0: 8f8f 6bbf 6120 393f 0f2d 8cbd 27ab 63bf
000000b0: 8570 fdbd 38fd 253f 7577 ca3f 08d9 81be
000000c0: 105e e0be ad90 e6bd 95ca 0ebf bf03 99be
000000d0: 2fca 283e d10e f03e 684b 1fbf 4c10 1d3f
000000e0: db7e 4fbf 645f fe3e c1aa 413e cf4b 74bf
000000f0: ee57 55bf 5c70 713f 52a6 9b3f 90ec 01be
00000100: 7be9 d2bd 31b9 abbe b02c 333f ece2 433f
00000110: 94c6 dd3e 1982 0dbe 2abf 1dbe 397f 303e
00000120: 85aa 933e e09b 6d3e 11c8 5e3d c919 f73e
00000130: c50d 0c3e 8932 1d3f 2d8d 8ebf f90b 053d
00000140: 20f4 9cbe 770b adbe 85f3 e23c 8e67 2a3e
00000150: 458c a63e fc96 cebe 93cd cf3e 4159 5fbe
00000160: 826e 12be 7dc4 adbd 165d 913e 793a a5be
00000170: 8f75 233d 6b89 b13e 411f 093f 2093 093f
00000180: a2bf b5be 33a4 063f 0108 4a3e 7b3e f6be
00000190: 1531 373e 8ab5 a53e e7eb ee3c b73c f13e
000001a0: 3bfb 58be 44b8 193f ae91 2bbe 584e 5abf
000001b0: ca73 8a3d 926c 50bc 36a2 2e3f 18c3 10be
000001c0: 8db0 f93e 590a 07bd c1b9 f73e 9c21 2f3f
000001d0: 6ea9 d13a 6f44 913e e3e3 c03d 2522 ccbe
000001e0: d1ab fe3e 1b00 a93e 1c92 093f c15a c43d
000001f0: 8880 173f c945 af3e 160b 2bbf 2bb0 8f3d

sequential_1/dense_1_2/BiasAdd/ReadVariableOp f4 [8]
-0.09518387 -0.08903766 -0.49550653 -0.44621816 0.43830118 -0.14687867 -0.17156594 0.34235963
00000000: c3ef c2bd 6059 b6bd 08b3 fdbe b576 e4be
00000010: 0369 e03e 5d67 16be fbae 2fbe c349 af3e

sequential_1/dense_1/BiasAdd/ReadVariableOp f4 [16]
0.3390687 -0.17667097 0.29913858 0.562251 -0.077296324 -0.0030992848 0.04697301 -0.34097356
0.47829723 -0.076171935 0.22278696 0.5600427 0.3823745 0.22880052 -0.8328281 -0.030081866
00000000: 6a9a ad3e 3ce9 34be b128 993e aeef 0f3f
00000010: 894d 9ebd 5f1d 4bbb c566 403d 1694 aebe
00000020: 60e3 f43e 0800 9cbd 4422 643e f55e 0f3f
00000030: 97c6 c33e af4a 6a3e 3934 55bf 3f6e f6bc

sequential_1/dense_1/MatMul f4 [16, 4]
0.26253164 -0.017894458 -0.3422618 -0.45835936 -0.03568594 -0.62792856 0.11377986 -0.31511685
-0.4278065 -0.3469255 -0.5482152 -0.0024103634 -0.17219545 -0.22959986 0.16922227 -0.07664221
-0.26455396 -0.3773642 0.06790483 1.4232131 0.04581094 -0.50085086 -0.49518344 0.42211542
-0.48170984 -0.3621269 0.02234346 -0.50751567 0.7374187 -0.41064435 -0.5908312 -0.30746862
0.3552243 0.46272188 -0.27076095 -0.4147712 0.6925194 -0.1769683 -0.018824695 -0.29531595
0.16555732 -0.27568644 0.29269713 0.19327676 0.3557918 0.53091794 -0.42666355 0.43852
-0.23294868 -0.29411286 0.26386067 0.18670255 -0.26255006 0.05289677 0.7596708 0.019342698
0.4469214 -0.19651084 0.15573986 0.4703302 -0.34654132 -0.24121654 0.33281085 0.64374226
00000000: 8c6a 863e 6697 92bc f03c afbe 14ae eabe
00000010: 6c2b 12bd edbf 20bf 6a05 e93d ff56 a1be
00000020: 7409 dbbe 38a0 b1be d557 0cbf 30f7 1dbb
00000030: 0154 30be 3a1c 6bbe 9a48 2d3e 97f6 9cbd
00000040: 9e73 87be e135 c1be b011 8b3d d92b b63f
00000050: 41a4 3b3d c337 00bf af88 fdbe 831f d83e
00000060: aca2 f6be b268 b9be a209 b73c 8cec 01bf
00000070: 79c7 3c3f fa3f d2be b740 17bf 876c 9dbe
00000080: f6df b53e e2e9 ec3e 2ea1 8abe e45c d4be
00000090: f448 313f 2e37 35be 3f36 9abc a733 97be
000000a0: dc87 293e c626 8dbe 66dc 953e 58ea 453e
000000b0: 582a b63e 3dea 073f a573 dabe b285 e03e
000000c0: 198a 6ebe f695 96be bf18 873e f42e 3f3e
000000d0: f66c 86be 49aa 583d c979 423f 9474 9e3c
000000e0: e2d2 e43e 233a 49be 457a 1f3e 1fcf f03e
000000f0: dd6d b1be 7801 77be 2f66 aa3e 4bcc 243f
